src/loop_closure/model/current_gnn_model.pkl (torch_old, 362260 bytes, 46 tensors)

node_encoder.weight f4 [64, 7]
00000000: e97a b5bc eeba 48be 7736 d23d 9d43 853e
00000010: ce26 65bd 6c12 8cbe a277 27be 86f2 0c3e
00000020: aad7 e93e 9db7 37be f553 663e 05a1 f13d
00000030: 5c86 3e3e 89dd 593e a18e 8dbd ca34 51be
00000040: 08e0 21bf 8009 80bc 6b53 ff3d cd6e bc3e
00000050: 89b9 683e ca61 043e 367b 1f3c ee2f 3ebe
00000060: e8d8 863e d1e0 a73e d419 903e 9198 d1be
00000070: 90f2 bd3d b4b2 8b3e ac97 a13e 8709 a0be
00000080: c9c1 673e 712b 3dbd 5afe 873e 20db 94be
00000090: 5fdd e6bb 8801 19bf fd51 163e ee17 903e
000000a0: 1d21 973e 1210 a1be 006a d03e 0640 1b3f
000000b0: 0235 5c3e 13c1 e4bc e5dc 473e dfd3 d9bd
000000c0: de80 553d 06d5 033f dc32 e73e 6721 263f
000000d0: 40e7 f3bd e42a cd3c 6140 71be a644 503e
000000e0: e137 313f ed82 1c3f 7cfe 2c3f e062 06bc
000000f0: 72b0 3a3e b153 85bd 743e 343d 4931 3b3f
00000100: 8184 b73e 931e d13d 3ad7 42be 5026 19bd
00000110: 610b 85be 2990 453e b640 003f f4c2 e0bd
00000120: 444c 203e a25a d9bb 7449 92be 3855 333d
00000130: d482 9abd 9987 4cbd c401 c23e 386d 87be
00000140: 7a7c 8f3e d369 a13b 1948 843e 2c86 143e
00000150: d845 02bf 672a 00bf 5b79 aabb 2f40 b0be
00000160: 4dd5 d03e ce07 91be 22c4 663e 6c37 c3be
00000170: e6f4 92be 91cf f1be 91c8 ce3d c1d7 afbe
00000180: d9c9 8dbe 2fec d03d 1a0d c43e f132 c53c
00000190: 354f 7abc b514 b1bd 34e2 e63d 06bf bbbe
000001a0: a4ae e13e d696 f4be 86b9 94be 241c 2abf
000001b0: 43c9 bd3a 2346 683e f698 9f3d c0ac 713e
000001c0: 134e f63e 52fa ad3e d72c d03e 120e 39be
000001d0: 2851 a43e 1e90 c3be d76e 9d3e fcdb 0e3f
000001e0: 3686 243f 2a4c 273f a1e6 85be f0dc 34be
000001f0: b74e c33d 70e9 873e fae0 763d 4f2e ccbe
00000200: 1da1 69be 9771 30be 482e 89bd 7dd3 b4be
00000210: f658 a73e 6f87 e33e aebe 323f d471 2a3f
00000220: 3026 6a3d 83ec 3bbe db3f aebe f070 913e
00000230: da13 993e 4411 a53e 5648 fd3e 8358 9dbc
00000240: a8e3 2dbe 44ae 743e ee5a a3be bb1e ce3e
00000250: 6f02 28be ccc7 123e 3214 b53c c6a5 f5bd
00000260: 63b5 9fbe bbcf b3bc 9149 f2be 03d8 bdbe
00000270: 1754 27bf 2990 d23c 31f2 afbd 34af 94be
00000280: 2ab6 343e f1c9 de3d e333 953e 5a67 103e
00000290: b32a 05be 573c 7e3c 7a15 163e e2c6 af3e
000002a0: 840e e63a 087e 34bc 294d 7b3d 7cf0 9d3e
000002b0: dfa1 403e 30a0 4cbe f8bf 323e 6aaa 23bf
000002c0: c112 e0be 715d b1be 9292 033e 781c 64be
000002d0: 949d afbe 38d2 38be 24a4 b2be 6331 8ebe
000002e0: c82e 10bf 032b b6bd c190 7b3e 9965 99bb
000002f0: 2d71 1e3e 0556 103e 9722 12be 4386 cd3e
00000300: c48a 9abc 973b 803e a477 953e d12c dbbd
00000310: 4b1a 203f 97e9 e93e 37a4 cbbc 0676 eb3d
00000320: 1d3d be3d 5c79 12be cd64 8cbd 84f5 e4bd
00000330: 7f51 2a3e 5c34 153f cd87 18be e8f1 193e
00000340: 5725 923d 29ee c83e b811 7dbe dfc3 00bf
00000350: 8148 063d 5d13 b73e c9ff debd 95df a6be
00000360: a02f 9fbc d431 453e e78d 36bd d992 1a3f
00000370: 4f6a a9be 33d0 8cbe f502 88bd 85d0 12be
00000380: 6d0d a13e 353b c23d cedd 8a3e 5820 2e3d
00000390: ca0a a03e bdf3 9abe c59f 8c3e 8674 cf3b
000003a0: d91d 96be a839 16bf 93f5 b9bd 6acb a03d
000003b0: aadb 6bbe 5ecf 873d 0bf3 033f f4c4 033f
000003c0: 4552 a83d 0af7 86be e2cd 753e cf4d c73c
000003d0: 2a13 96be 0a5f f93b 7980 f2be 09c6 50bd
000003e0: 6979 913e 3f15 45bd e312 103e 78d3 ec3e
000003f0: 42ee 083f dbe4 c73e 269c ba3e 9713 893e
-0.022153335 -0.19602558 0.102642946 0.26028147 -0.05594521 -0.27357805 -0.1635423 0.1376439
0.4567235 -0.17941137 0.22492965 0.1179829 0.18605942 0.21275915 -0.0691197 -0.20430294
-0.6323247 -0.01562953 0.124670826 0.36803284 0.22727026 0.12927929 0.009733966 -0.18572971
0.2633736 0.3278871 0.28144705 -0.4093671 0.09274781 0.27284777 0.3156103 -0.3125727
0.22632517 -0.046184007 0.26561242 -0.2907343 -0.0070454325 -0.5976796 0.14679714 0.28143257
0.2951745 -0.31457573 0.40705872 0.60644567 0.21504596 -0.027924096 0.19517858 -0.10636114
0.05212485 0.5149692 0.4515599 0.6489472 -0.11909342 0.025044866 -0.23559715 0.20338687
0.6922589 0.61137277 0.6757581 -0.008202285 0.18231371 -0.065101035 0.044004872 0.7312208
0.3584328 0.1021091 -0.19027415 -0.037390053 -0.25985244 0.19293274 0.5009874 -0.10974684
0.15654093 -0.0066331187 -0.28571665 0.043782443 -0.07544485 -0.049934004 0.37891972 -0.26450515
0.28024656 0.0049259453 0.25836256 0.14504308 -0.50887823 -0.500647 -0.005202455 -0.34423968
0.40787736 -0.28326267 0.22535756 -0.3812822 -0.28702468 -0.47228673 0.10096849 -0.34344295
-0.2769306 0.102012984 0.38291246 0.024072142 -0.0152776735 -0.08646528 0.112736136 -0.36669177
0.44078553 -0.4777133 -0.29047793 -0.6644919 0.0014479536 0.22683005 0.07792847 0.23601055
0.4810644 0.33980042 0.4065921 -0.18071774 0.32093167 -0.3819589 0.30748627 0.5580442
0.6426729 0.6535059 -0.26152518 -0.17662406 0.09536498 0.26545286 0.060273148 -0.3987908
-0.22815366 -0.17230831 -0.066982806 -0.35317603 0.3268506 0.44439265 0.69822204 0.6657994
0.057165325 -0.18351941 -0.34033093 0.28406477 0.29897958 0.32239735 0.4946925 -0.019207245
-0.16981375 0.23894602 -0.3190531 0.4025782 -0.16407178 0.14334029 0.022104356 -0.119945094
-0.31193075 -0.02194964 -0.47321752 -0.37078866 -0.65362686 0.025703507 -0.08591116 -0.2903992
0.17647615 0.10878361 0.2914115 0.14101925 -0.1300457 0.015517316 0.1465663 0.34331423
0.0017551933 -0.011016376 0.061352883 0.30847538 0.18811749 -0.19982982 0.17456043 -0.63931906
-0.43764308 -0.34641603 0.12848881 -0.22276485 -0.3429991 -0.18048942 -0.34890854 -0.27772054
-0.5632138 -0.088949226 0.24566938 -0.004681301 0.1547286 0.14095314 -0.14271007 0.40141496
-0.018864997 0.25045463 0.2919284 -0.107019074 0.6254012 0.45686027 -0.024858577 0.114971206
0.09289 -0.14304107 -0.06855164 -0.11179641 0.16632651 0.5828302 -0.14895554 0.15033686
0.07136028 0.39244202 -0.2471379 -0.50298876 0.03278399 0.3575696 -0.10888631 -0.32592455
-0.019431889 0.19257289 -0.044568922 0.6038032 -0.3308892 -0.27502593 -0.06641189 -0.14337356
0.31455556 0.09483949 0.2712235 0.042511314 0.3125823 -0.30264083 0.27465644 0.0063310293
-0.29319647 -0.58681726 -0.09080043 0.07851298 -0.23033014 0.06631349 0.5154273 0.514724
0.08218817 -0.2636035 0.2400432 0.024329094 -0.29311496 0.0076102065 -0.47363642 -0.05097011
0.2841294 -0.048115965 0.14069705 0.46255088 0.5348855 0.3904179 0.36447257 0.26772758

node_encoder.bias f4 [64]
00000000: 78c4 8e3e aa14 a33e dcad 823e 7294 683e
00000010: 49eb 1c3e fd9c e63d 0fbc 0c3e 88c8 2e3e
00000020: 3c51 bcba 8abe df3d 94f3 2dbd f8e0 c33e
00000030: 9c1b 15bc dcef 0b3e 3310 863d 4216 653e
00000040: c7a2 39bd 1161 77be f245 70be cfde ff3c
00000050: 850a b6be e8b3 5bbe 8359 e1bd 1335 a9bd
00000060: 7a4b 373d 5c65 e8bd c103 11be 9b36 b7be
00000070: d81d cc3c d291 3f3e 9da9 f23d 60b9 b2bd
00000080: 35a5 323e ad3d dfbe 5beb 333e 7ced 65bd
00000090: f5a4 ffbb a736 b0bd 57ee 9dbe 4ed8 c33d
000000a0: d36c 4abe c119 a8bd 727e 39be 6d66 06bd
000000b0: 48bd c13e 86a9 95be 500e 95be b498 913d
000000c0: 5eca c2be eca8 81be 6031 443e d1c5 ebbe
000000d0: 64d9 95be c2a6 d03e 68e9 eb3e 3050 4abe
000000e0: 13d2 1cbd 59a8 80be dd87 b93e cd20 85be
000000f0: a955 ae3e 3a15 b73e 4f8c 17bd e6eb 103e
0.2788427 0.31851703 0.2552327 0.22712877 0.15324129 0.11260412 0.13743614 0.17068684
-0.0014367471 0.10925014 -0.042468622 0.38257575 -0.009100821 0.13665718 0.065460585 0.22371772
-0.045321252 -0.24158122 -0.23464182 0.031234173 -0.355549 -0.21455348 -0.11003401 -0.08262076
0.044749714 -0.11347458 -0.14161588 -0.35783848 0.024916574 0.1870797 0.118487574 -0.08726764
0.17445834 -0.43601742 0.1757025 -0.056134686 -0.007801647 -0.08604174 -0.308459 0.09562741
-0.19768076 -0.08208037 -0.18114641 -0.032812525 0.37839723 -0.292309 -0.29112482 0.07109204
-0.3804502 -0.2532419 0.1915946 -0.4604936 -0.29267418 0.40752226 0.46076512 -0.19757152
-0.03828628 -0.2512844 0.36236468 -0.26001588 0.3404973 0.35758382 -0.036999043 0.14152488

edge_encoder.weight f4 [64, 4]
00000000: 009d c83b cc2a e1be 7040 d4be c672 90be
00000010: 34ea 91be 6603 df3e 0457 eabe c0e8 27be
00000020: cc3d 0f3e e8ca 4a3e 849d b73e 5090 a3be
00000030: 4263 d5be 88d9 d03e cea3 8dbe 82a8 e9be
00000040: 40e0 2e3c a811 33be 5e84 da3e 5281 d73e
00000050: 62c9 af3e 2874 843e 1ce3 c93e cef9 cabe
00000060: 988c f8be aa64 b23e 9c9e 6e3e 7c8f 273e
00000070: be01 ba3e 38a6 38be dc5b 39be 5071 7cbe
00000080: 2452 c5be a834 183e 00ea cc3a 22c9 dabe
00000090: 70e6 47be 60db 10be 708d 783d 389b 1dbe
000000a0: 3478 2bbe 8053 8f3b ae84 adbe a829 873e
000000b0: 783f b7be 1848 d2be 100b 603e 00d9 7fbd
000000c0: d479 25be 18e8 233e 3ab4 eebe 7018 99bd
000000d0: 40f7 f4be 281e 3f3e b00f 1ebd 2667 efbe
000000e0: d8c5 9c3d a43d 513e 943b c13e ead5 d0be
000000f0: f621 86be 5402 05be 7e19 bcbe 142d 553e
00000100: c049 2d3e 18e5 efbd a01f a0bc 9c81 443e
00000110: 508e 8b3e f8ed 503e 005d f53b ace2 a23e
00000120: c0f4 84bc d800 013e 1ec6 b73e 8cb3 74be
00000130: 7a2b cc3e c04e 9fbe 365b c4be d24b efbe
00000140: 0006 92bd e622 d5be 9c42 103e f22e ecbe
00000150: 2c5d 6dbe 08d8 5bbe 0478 0f3e 96df 803e
00000160: 4275 aa3e 00a3 15bc 20c3 b1be 109c 0c3d
00000170: f2b9 ed3e 5893 e7be 70a5 623d c09c b03c
00000180: 4020 5f3d dabb a53e c03b e6be 443b b83e
00000190: b0cc 313d 94dd 3dbe 06a4 c6be 1c16 c13e
000001a0: 76ed b23e 2c2f 413e 9ac2 dbbe 6c3d b2be
000001b0: e079 253e 907c e6bd fc55 713e ca79 95be
000001c0: f615 cb3e f2c3 8abe ae33 81be 18ea 0a3e
000001d0: 2017 863e d4b4 6abe dccc 04be 8425 163e
000001e0: 50e8 393d 2074 b83c 6811 a23d fa4f 93be
000001f0: a48e 343e 10fd b2bd 7afc d8be 7c75 52be
00000200: b25d a6be 4c97 7f3e 52f3 953e f4af c8be
00000210: e0a0 b3bd 64bd a93e 46ec c8be ea65 b4be
00000220: 5076 ef3e 4485 17be 2cd2 51be 3c35 7d3e
00000230: 4498 28be 288f 0f3e 8c02 6dbe 70f1 75be
00000240: d4cc 683e 34ec e2be 0c7c e53e 18e2 3cbe
00000250: f4f3 973e 8a71 b6be bc93 a9be 7660 9d3e
00000260: 20a2 f83c 8019 df3c f422 fc3e 8265 813e
00000270: 4caf 4b3e 1c5f 523e ecf2 f23e 4031 df3e
00000280: d6d2 b8be 202b 5cbd a0de 97bd 1c00 85be
00000290: 34fc babe b4ae 9a3e 70a5 573d 28da 5c3e
000002a0: 68c4 013e a26c cdbe c48c d4be f8ac 313e
000002b0: e069 42be d097 353d c41b 783e 38c7 493e
000002c0: f6b8 cd3e 788c 683e e0ca f0bc f042 263d
000002d0: 8893 adbe b0df 06be c0fd aebc 7c68 ebbe
000002e0: 5eb3 913e 5c76 9f3e 30f7 bbbe befe b13e
000002f0: 30ae 543d 903c 39bd 943a 10be 8037 d53c
00000300: f81f 253e 28ce b13d 0880 e1bd 0067 9ebb
00000310: c0b6 d0bd 8833 bdbe e891 d8be 6219 de3e
00000320: 4099 463d 3a40 9c3e 88db aabe 98ae 123e
00000330: 50e5 dc3e 981f 453e 0e60 9abe cc81 5f3e
00000340: 2075 fa3c 541d f9be 4433 83be 10cf e9bd
00000350: 18e7 f33d cc8e c43e 8259 acbe 9089 09be
00000360: 9034 47be f406 363e 3844 bebe d82e 4c3e
00000370: f4e7 c03e e22f edbe 2025 51be 9c4e af3e
00000380: ead5 a8be e0e2 ae3e 0817 a53d 80cf b73d
00000390: 6cfe e73e d099 37bd 8837 7dbe 3e44 b6be
000003a0: bcd8 e8be 7c96 42be f00d b9bd 302e 003e
000003b0: c04b 54be 8098 93bd 1a7d 8b3e 08c5 8ebe
000003c0: 987f 8fbd 80e9 343c fca1 263e 1a0b e03e
000003d0: 3eb5 f6be 00ff 113d 88bf 94be 2082 f4bc
000003e0: d879 20be 9041 82bd fc7a eebe 70eb a53d
000003f0: ae13 9cbe 647b 51be 80ce 91be 780b 98bd
0.0061222315 -0.43977964 -0.41455412 -0.28212565 -0.28498995 0.4355728 -0.45769513 -0.16397381
0.13988417 0.19803965 0.35862362 -0.3194604 -0.4167729 0.40790963 -0.27664036 -0.45636374
0.010673583 -0.17487204 0.42679113 0.4209085 0.3433333 0.2586987 0.39431083 -0.3964371
-0.48544765 0.34842426 0.23302692 0.16363329 0.36329454 -0.18032157 -0.18101448 -0.246526
-0.3853923 0.14863837 0.0015633702 -0.42731577 -0.19521499 -0.14146185 0.06068176 -0.15391243
-0.16745073 0.0043739676 -0.3389029 0.2639897 -0.3579061 -0.41070628 0.2187922 -0.062462807
-0.16159755 0.16006505 -0.46621877 -0.07475364 -0.47844887 0.18663847 -0.03858918 -0.46758384
0.07654923 0.2043367 0.37740767 -0.40788203 -0.26197785 -0.1298917 -0.367382 0.20817977
0.16922665 -0.11713618 -0.01954633 0.19190067 0.27257013 0.20403278 0.007487893 0.31813562
-0.016229987 0.12597978 0.3589334 -0.23896617 0.3987692 -0.3111477 -0.38350838 -0.46737534
-0.07130051 -0.41628188 0.1408791 -0.46129566 -0.23180073 -0.21469128 0.14010626 0.25170583
0.33292586 -0.0091331005 -0.3471918 0.03432852 0.46430928 -0.45229602 0.055333555 0.02155912
0.054474115 0.32369882 -0.4496746 0.35982716 0.043408096 -0.18541557 -0.38797015 0.3771218
0.34946793 0.18865651 -0.42921907 -0.34812486 0.16159773 -0.11254227 0.23567957 -0.2919448
0.39665192 -0.2710262 -0.2523474 0.13565862 0.26189518 -0.22920543 -0.12968773 0.14662749
0.045387566 0.02251631 0.07913476 -0.28771955 0.17632538 -0.08739674 -0.42380124 -0.20552629
-0.3249336 0.24960059 0.292872 -0.39196742 -0.08770919 0.33152306 -0.39242762 -0.35234004
0.46769953 -0.1479693 -0.2049033 0.24727339 -0.16464335 0.14019454 -0.23145503 -0.24017882
0.22734386 -0.44320834 0.44821203 -0.18445623 0.2967831 -0.35633498 -0.33120525 0.30737656
0.030350745 0.027233839 0.49245417 0.25272757 0.19891089 0.20544094 0.4745096 0.43592262
-0.36098355 -0.053752065 -0.07415509 -0.25976646 -0.3652054 0.30211413 0.052648008 0.21567595
0.1267258 -0.40121943 -0.41513646 0.17351139 -0.189857 0.044334233 0.24229342 0.19704902
0.40180176 0.22709835 -0.029393613 0.04059118 -0.3390162 -0.13171268 -0.021361232 -0.45978153
0.2845716 0.3114499 -0.36712027 0.34764665 0.05192393 -0.045223773 -0.14084846 0.026027441
0.16125476 0.08681899 -0.11010748 -0.004834056 -0.10191107 -0.36953378 -0.42298818 0.4337874
0.048485994 0.3051775 -0.33370614 0.14324415 0.43143702 0.19250333 -0.3015141 0.21826857
0.030573428 -0.48655188 -0.2562505 -0.11416447 0.11909312 0.38390195 -0.3366204 -0.13431382
-0.19453645 0.1777609 -0.37161422 0.19939744 0.37676966 -0.46325594 -0.20424318 0.34239662
-0.32975703 0.34157467 0.080610335 0.08975124 0.45311296 -0.04482442 -0.24728215 -0.3559894
-0.45477855 -0.19002718 -0.090358615 0.12517619 -0.20732021 -0.072068214 0.27243882 -0.27884698
-0.070067585 0.011041999 0.1627273 0.4375847 -0.48185152 0.035643578 -0.29052377 -0.029847205
-0.1567148 -0.06360161 -0.46578205 0.08101547 -0.30483764 -0.20457226 -0.2847786 -0.074240625

edge_encoder.bias f4 [64]
00000000: da4d a13e 5069 0abe 5ec3 873e 6688 873e
00000010: a0f4 e5bd e0ad 34be 880c e63d 1825 7dbe
00000020: 0e83 c93e 1e08 f7be b86c f13e c0da d83d
00000030: f8f4 b7be 1ce0 c53e 80e6 d03e 7682 d83e
00000040: c474 913e 7207 ea3e 084b 2fbe 98a9 d2be
00000050: f4e5 483e d2ba 9b3e 10ff c43e d414 b0be
00000060: c286 bfbe f87c 0a3e 30ab 33be bcd9 213e
00000070: 0461 f23e 8034 aebd bc3e 093e 664d a33e
00000080: 821f 8cbe 5eb0 e33e beba ed3e 006c b3ba
00000090: c07e 973c 9a44 953e 4adb bf3e 6476 653e
000000a0: 8054 49bd 6e49 e7be d056 44be d0ba f33d
000000b0: 00b0 0039 d86c 83be 0ee8 edbe 6073 0e3d
000000c0: 520a f63e f83a 3bbe d035 81bd b8e2 f93d
000000d0: c0e5 80be 96ce e83e 200b a9be 0099 a0bc
000000e0: f86f d4be f674 e03e 46b7 82be d207 fe3e
000000f0: 68e3 593e 44a5 a23e 5aa9 9ebe 0095 43bd
0.3150471 -0.13516736 0.2651624 0.2647125 -0.11228299 -0.17644453 0.11232859 -0.24721181
0.393578 -0.4824838 0.47153258 0.10588598 -0.35929084 0.38647544 0.40800858 0.42287034
0.28409398 0.45708805 -0.17118466 -0.41145015 0.1961897 0.3041597 0.38475847 -0.3439089
-0.374075 0.13524234 -0.17545772 0.15805715 0.47339642 -0.08506107 0.13402838 0.31894988
-0.2736779 0.44470495 0.46431535 -0.0013688803 0.018493056 0.291539 0.37471992 0.22408444
-0.04915285 -0.4517321 -0.19173741 0.11900866 0.00012272596 -0.2566898 -0.46466106 0.034778
0.4805475 -0.18284214 -0.06309092 0.12201446 -0.25175285 0.45470113 -0.330163 -0.019604206
-0.41491675 0.43839234 -0.25530452 0.4961534 0.21278155 0.31766713 -0.3098858 -0.04774952

conv1.g f4 [64, 320]
00000000: 7887 64bd bab8 7a3d 399a 453c 4167 83bd
00000010: 2209 6c3d 18e6 d83d a678 27bd 00d6 04bd
00000020: 8c63 bf3d 6734 a63d 0a90 533d 5b2c 7f3d
00000030: 9532 febb e05b ddbd 2316 8a3c 8682 e83a
00000040: 81b0 79bd d352 063d 337e 8dbc 7426 853c
00000050: 3217 b63d 90d2 6ebd 85f7 c7bd e759 a43d
00000060: 6411 b5bd 0ada 1ebd a4af fcbc b3ac c83d
00000070: 27f2 653d d042 d9bd d9e5 60bd e3de ee3b
00000080: 1df3 1cbd 1a9a 5dbd ff87 56bd e3b2 383d
00000090: cbab a4bd d7a6 ebbd 9a0f 1abd d395 a13d
000000a0: 1306 e7bd 5155 a9bd 257b 113b 12a9 bd3d
000000b0: facb 17bd 0803 82bd 3708 6dbd 24a7 f33d
000000c0: 3feb dfbd c054 8f3d 540d 833d 9025 ae3d
000000d0: 3ed2 5ebc 4603 173d 4d9f 123d 32eb b53d
000000e0: 9b9a ac3a 3655 5ebd e005 ef3d de87 5c3d
000000f0: 1264 aa3c c253 9ebc 9faa 60bd e6c1 48bd
00000100: 82ea 5abb 5ad7 7c39 bf58 2a3a 7685 a5bb
00000110: 4f11 8e3a d70a 3f39 a686 563a e4a1 143a
00000120: 5bc0 1fbc 118e 353b b318 dd3b b245 053b
00000130: c59e 9bbb ca67 88bc c0a1 15bb 493f 223b
00000140: 4133 b8ba 4d46 9cba 6fb2 6e3b 164a 9eb9
00000150: d921 653a 863d dcbb f87c a13c 707c beba
00000160: 9513 60ba ab62 c33b 68ec e83c 0679 f0ba
00000170: beae 51bd 2756 a63b 6b84 2a3a 6e05 5f3a
00000180: c6cc 023a d596 803a fd1f 0f3a 817d f83c
00000190: 5f6e 7fba 9e42 0bbd f4c5 873c 6049 833b
000001a0: 3dfc 57b9 6856 d338 d57f 49bd 7451 2c3c
000001b0: 9d8e e839 f44b 733a 8c0b 403a a46b a73c
000001c0: 1ef4 003c aafc 4f3a 1557 5c3a 208f 183b
000001d0: 6f71 c1ba fac9 973a 42ec 213a caad e03b
000001e0: 194a 1cb9 0878 a8ba 2770 4c3d b103 623c
000001f0: 0585 33b9 d21a b239 82ef 83b9 1767 46ba
00000200: f0b7 5dbd 8727 883b 43c3 bfbc a7d4 423c
00000210: b33c ca3c fa65 043c 8be1 8f3b f3a1 04bb
00000220: 77e7 2cbd d344 42bc 743d acbb eb89 fcbc
00000230: ef3f 83bd 3c83 cd3d 4c12 93bb b284 17bd
00000240: ea05 8f3b 8931 a4ba 8915 b73b 2665 1c3b
00000250: aa8b 2fbc 7fdd 1d3d 23b3 5f3d ab35 7b3c
00000260: d537 583d d081 d1bc 816b 88bd d9c3 183d
00000270: 3235 dd3d 3fea 2c3d 4dde be3b ca04 143c
00000280: b58c 933b 0a00 953c c42e 183c a523 a23c
00000290: e144 86bc a663 393d 949d d8bb c6ae 4a3c
000002a0: 8658 bcba 2243 f53c 9b0b 74bd 34a5 133d
000002b0: 7796 e23c 0321 c53a 3357 3aba 8797 55bc
000002c0: 2919 713c 6b3d 66bc 1a50 92bc 9209 ab3b
000002d0: d934 673c 9190 08bc 42a8 3539 d563 953c
000002e0: f3cc f1b8 a892 b0bc ea3c 493d bda6 5d3d
000002f0: 301a 383c 22f2 7e3b 4e15 0dbd c54b edbc
00000300: 522c 703d 3b9f 68bd cb5e 0b3d 37d7 e3bd
00000310: 3174 023d 94a7 afbd 2fda 75bb 9157 de3d
00000320: 6f3c 6abd 6bce 853d 948d 683d 6ad9 483c
00000330: d9d7 8c3d 7079 333d adef 3fbc 0934 fa3c
00000340: fef9 a8bd 15a9 cc3c 8289 ae3c c7f6 f23c
00000350: e939 90bd f4b1 3d3c 4e21 5f3d 305c 433d
00000360: 2232 97bd 8792 923d 5e7f a7bc 405c 143d
00000370: 617e dabc 5f3a bcbb a0ba f13d 618f f03c
00000380: 8ae2 c73c 8d69 ab3c 8e16 2a3c 662f b3bd
00000390: 8870 f8bd 7b4b ffbc f19e e03d 5ec5 e63d
000003a0: cee0 1b3e 4c6d c83d 0f88 033e 6311 dabc
000003b0: 0676 91bd 4208 e4bc 8412 663d 6d2f 2abd
000003c0: 7ba2 8a3c 4b75 d1bc b300 8c3c 397c 513c
000003d0: 7539 cabd 84fa 893d 3b04 8dbd e153 9e3c
000003e0: 20d0 953c 0bad 98bd ce53 9dbd 5043 263d
000003f0: 66f7 babc 7ca4 e33c 0b67 0ebd a1cd 623d
-0.055793256 0.061211325 0.012060695 -0.064161785 0.057625897 0.10590762 -0.040886544 -0.03243065
0.09345159 0.08115464 0.05165104 0.06229816 -0.0077574947 -0.108085394 0.016856259 0.0017739094
-0.060959343 0.03279383 -0.01727209 0.016253687 0.08891143 -0.058306277 -0.097640075 0.0802496
-0.088412076 -0.038782157 -0.03084547 0.09798565 0.056139138 -0.106084466 -0.0549067 0.0072897538
-0.03831779 -0.05410204 -0.05237579 0.045092475 -0.080405794 -0.115064315 -0.037612535 0.07889905
-0.112804554 -0.08268226 0.0022198644 0.09260763 -0.03705976 -0.063482344 -0.057869162 0.11897114
-0.109335415 0.06998587 0.063990265 0.08503258 -0.01359993 0.036868356 0.035796452 0.088827506
0.0013168635 -0.054280482 0.116710424 0.05384051 0.02079967 -0.019327048 -0.054850217 -0.04901304
-0.0033403938 0.00024112817 0.00064982096 -0.00505131 0.0010838899 0.00018219218 0.00081835163 0.00056698755
-0.009750451 0.0027703086 0.006747329 0.002033573 -0.0047491514 -0.016651053 -0.0022832006 0.002475696
-0.0014053361 -0.0011922807 0.0036422273 -0.00030191307 0.00087407004 -0.0067212014 0.01971291 -0.0014532935
-0.000854784 0.00596269 0.02843304 -0.0018346615 -0.051192038 0.005076188 0.0006504717 0.0008507584
0.000498962 0.0009810576 0.0005459784 0.030333282 -0.00097439246 -0.033999078 0.016573884 0.0040065497
-0.00020597964 0.000100773585 -0.049194176 0.010517467 0.00044356743 0.0009281032 0.00073259394 0.02043707
0.007870702 0.0007934073 0.000840531 0.0023278669 -0.0014758537 0.001158058 0.0006176868 0.006856655
-0.00014904923 -0.0012853155 0.049911644 0.013794825 -0.00017120324 0.00033970788 -0.00025164714 -0.0007568462
-0.054130495 0.0041551027 -0.023408538 0.011891521 0.024687147 0.008080954 0.0043909005 -0.002023813
-0.04221293 -0.011857229 -0.005256349 -0.030827483 -0.06408679 0.100347966 -0.004488265 -0.036991782
0.0043647187 -0.001252697 0.005587284 0.0023864 -0.010714451 0.038541313 0.054614197 0.01533262
0.05278762 -0.025574595 -0.0666113 0.03729615 0.10801162 0.042215582 0.00582484 0.009034345
0.0045028576 0.018188495 0.009288494 0.019792387 -0.016390266 0.045261048 -0.0066105817 0.012370771
-0.0014369644 0.029939238 -0.05958138 0.03604622 0.027659638 0.0015039745 -0.00071083306 -0.013036615
0.014715471 -0.014052729 -0.017860461 0.0052196467 0.014111721 -0.008335249 0.00017324186 0.01823608
-0.0001152995 -0.021554306 0.049130358 0.054114092 0.011236712 0.0038901647 -0.034444146 -0.028966794
0.058636017 -0.05679248 0.03402595 -0.11125033 0.03184909 -0.08576885 -0.003751408 0.10856546
-0.05718654 0.06533512 0.056775644 0.012258867 0.06877107 0.043816984 -0.011714858 0.03054239
-0.08250807 0.024982968 0.021305803 0.029658688 -0.070422955 0.011578072 0.05447512 0.04769534
-0.07382609 0.07156854 -0.020446476 0.03622079 -0.02667159 -0.005744263 0.11803174 0.029365243
0.024400014 0.020924354 0.010381354 -0.08749275 -0.12130839 -0.031163922 0.10967816 0.112681136
0.15222475 0.09786472 0.12844871 -0.026619619 -0.07102589 -0.027835969 0.05617 -0.041549135
0.01692318 -0.025568625 0.017090177 0.012785965 -0.0987424 0.06737235 -0.068855725 0.019327106
0.018287718 -0.0745488 -0.07682 0.040591538 -0.022823047 0.027788393 -0.03476624 0.055371884

conv1.mu f4 [5, 4]
00000000: afe7 de3e ef93 323f bd96 7cbe 800a 003f
00000010: f5fb 373f 2d56 083f 04b2 ee3e f420 31bf
00000020: 595d c93e dafa 78bd 2643 953d 420b 05bf
00000030: 16a2 0cbf 49b7 73bd 18a8 3c3f 89b6 39be
00000040: 0994 26bf df24 94bd 332d 8e3e 116b 103f
0.43536136 0.6975698 -0.24666877 0.5001602 0.7186883 0.53256494 0.4662019 -0.6919091
0.3932903 -0.060786106 0.07288198 -0.51970303 -0.54934824 -0.059500966 0.7369399 -0.18136038
-0.65069634 -0.07233595 0.2776886 0.5641337

conv1.sigma f4 [5, 4]
00000000: 75a5 923e 7042 06bf 429a 233f d417 09be
00000010: 6880 603e 098a 903e 99fe 66be a482 1b3f
00000020: 09be d63d ba6f 16be f412 c8be 49e3 f33e
00000030: 25db 7a3e 337a 24bf 52ff 353f c031 c3be
00000040: dd7a 523e 2c1d 68be a338 213f 6b18 083e
0.2864186 -0.52445126 0.63907254 -0.13387996 0.21923983 0.28230312 -0.22558059 0.60746217
0.10485465 -0.14691058 -0.3907696 0.47634342 0.2449766 -0.6424896 0.7109271 -0.38123894
0.20554681 -0.22667378 0.62977046 0.13290565

conv1.root f4 [64, 64]
00000000: 2698 94bd bf8a 903e cdd1 643e 0fa6 db3d
00000010: 5e72 1b3e b56d 7d3e 6e53 e3bd b593 4c3d
00000020: 6242 143d 8b38 dcbd 8566 2d3e d34f 5dbe
00000030: 9b0d 4dbc 968a 463e 9c58 90be 4972 f73c
00000040: 7ecf 3b3d 778a 853e 7266 17be 5ee7 bdbd
00000050: fd3b 2d3e d832 aa3b 7244 963c 0a9f 9ebc
00000060: b2f7 503d 2ee5 2ebe 97df 6abe b400 97bd
00000070: 6174 11be 9dad 3b3d 2c1e c43a 1258 8f3d
00000080: a740 88be d938 183d 5474 cd3d 294d 713d
00000090: a729 7ebe 3b54 843d b475 973d 3a21 2dbc
000000a0: 2285 63be 6e5c 313d 748d a03d 6ac4 273e
000000b0: 2886 e1bd 3475 933b 9166 58be 783d 48be
000000c0: 742c 863d c88f 44bc 1de2 b53d a158 433d
000000d0: 64bf 843c 271f 56be 6df5 d83d bb2f 993d
000000e0: 0cf6 20be 7266 c13d 6f89 523e 8bfe 143e
000000f0: f977 9d3d fee7 90bd 8606 0dbc 9794 113e
00000100: 9dc5 61be b765 0f3e 101b 09be def8 8f3d
00000110: bab8 c6bc a357 3ebe 5c96 3bbe d64c 37be
00000120: 73eb 4abe 94dc 17be ca20 9fbd eac3 103d
00000130: 61d0 fbbc a5e6 b8bd 6484 8abe 7198 a1bd
00000140: 1dd3 e83b b07e e63d 727a 6f3e 20fc 8e3d
00000150: 131e 1abe bf78 03be 3ff5 e1bd 3922 9fbc
00000160: 60ea 453e dc88 1bbe 41f1 31be 394c 2f3e
00000170: 089f 863d a764 1fbd aa62 133c 1bc0 5e3e
00000180: 4bd6 a93d dfcb f7bd cca5 e8bd 0f08 dcbc
00000190: f400 863e 754e aabd 528e f23c 84db 87bd
000001a0: 57aa b73d 2193 843d dd34 d73c 5d8f 953d
000001b0: bb37 a7bc a4d1 0a3e 2584 9dbb 1b32 463e
000001c0: fec8 24be 9f2b e6bd fe0b 05be 7a22 c7bd
000001d0: bb4f 393e 51e1 97bd 4048 1c3e 9f2f 953d
000001e0: 4ee8 7d3e aa45 4d3e dcfc 263e d98c 673e
000001f0: ea7b 8d3d 6511 48bd f188 773d 5376 95bd
00000200: eb05 573e f9a2 e2bd 5c81 fa3d 01ea 023e
00000210: ad7d c4bc 764c c9be a8f1 823c 9634 17bc
00000220: e21c db3c 3a4f 6d3e f72c 343d 2094 513e
00000230: b185 763e 89e2 03be 67c7 033b 5c2f 00be
00000240: cbc4 c43c cad9 5bbd ce5b 2fbe bd37 5e3c
00000250: a94a 63bd b0c8 403d 51c5 f8bd 2bab 9c3e
00000260: d1a9 c6bd 75b9 5a3c 0f6f 7dbd 2f90 29bc
00000270: e175 45be d3bb 593e 1500 d0bd 1913 8cbc
00000280: e5d1 61bd 77b1 90bd 2e7c e2bc ac63 2a3e
00000290: 8bc1 463e a9cf 3dbe 35f3 9ebc 864a 0cbe
000002a0: 4960 c0be 19e1 273e f9bd 2cbc ea0d 6f3e
000002b0: 7e13 7dbe e742 3b3e 3727 623e 7ac8 0bbe
000002c0: 9c70 903b 2f06 81be 4280 173d 27ae 58be
000002d0: 5968 143e ad7f 62be 0224 933c 5d6d acbd
000002e0: 089f 27bd 763c 7d3e 13b5 53be 590d 283e
000002f0: 0300 1e3d 0db1 583c f500 9b3d 15ba 0dbd
00000300: 609b 59be 99b4 02be 5ebe 26be 9e30 be3d
00000310: c95d 893d 53cc 023e e513 00be 1cf3 fb3d
00000320: 929c 14be c962 67be b735 3a3e f7e8 983d
00000330: 2411 3c3b 02fd 8abd 34ac 4fbc 34e9 88bd
00000340: 6700 bfbc 4402 153e b457 883d d00e 863d
00000350: dff7 4cbe 0c36 c93d 012b 343e 44fb b33d
00000360: b9cd 57be 5471 55be 04a3 ad3d 0f6d 09bd
00000370: 076a d73d 85c9 933d 41c7 cdbd 96a3 37be
00000380: 6d24 62be a550 3cbe f015 a73d ce62 9f3d
00000390: 85d9 4e3e 1f0c 413e d09f 1b3d e2f9 2cbe
000003a0: 6a60 093e 7e85 84be b2bd cc3d 208e f73d
000003b0: 4aa2 80bd 7df3 b23c 7c6f edba 5610 fa3d
000003c0: 0952 b339 ad60 23be 79c9 433e 9389 583e
000003d0: d1cc 853e 7ab7 20be d389 bbbd e3d6 1f3e
000003e0: 5b9c 32be 306d 653e 8661 d4bd 61a7 603e
000003f0: 26fc 1ebe 7b55 483e a738 7dbe 1bc6 cb3b
-0.072555825 0.28230855 0.22345658 0.107250325 0.15180346 0.24748881 -0.11099897 0.049945552
0.03619612 -0.10752972 0.1693364 -0.21612482 -0.012515451 0.19388804 -0.28192604 0.030205863
0.045852177 0.26082203 -0.14785174 -0.092726454 0.16917415 0.0051940493 0.018343184 -0.019362945
0.05101747 -0.17079613 -0.22936855 -0.07373181 -0.14204551 0.045819867 0.0014962605 0.0699922
-0.26611826 0.03716359 0.100319535 0.058911476 -0.24820577 0.06461378 0.07395497 -0.010567004
-0.22218755 0.04330104 0.0783948 0.1638352 -0.110119164 0.0045000557 -0.21132876 -0.19554698
0.065514475 -0.011997171 0.08881018 0.047691945 0.016204543 -0.20910321 0.10593686 0.07479807
-0.1571886 0.09443368 0.2056024 0.14550225 0.076888986 -0.07075499 -0.008607512 0.14216839
-0.2204804 0.14003645 -0.1338923 0.070298895 -0.024258006 -0.18588118 -0.18319076 -0.17900404
-0.19816379 -0.14830238 -0.07769926 0.03534309 -0.030739011 -0.09028367 -0.2705413 -0.07890404
0.007105245 0.112546325 0.23386553 0.06981683 -0.15050535 -0.1283903 -0.11033105 -0.019425498
0.19327688 -0.15188926 -0.17377187 0.1711892 0.065733016 -0.03891435 0.008995691 0.2175297
0.08292826 -0.12099432 -0.11359748 -0.026859311 0.26172602 -0.08315746 0.02960888 -0.06633666
0.089680366 0.06473375 0.026270324 0.07302735 -0.020412317 0.13556534 -0.0048070126 0.19355051
-0.16092297 -0.11238789 -0.12992856 -0.09723373 0.18096821 -0.074160226 0.15261936 0.07284474
0.24795648 0.20046106 0.16307396 0.22612323 0.069084 -0.048844714 0.060433332 -0.07297959
0.20998351 -0.11066241 0.122317046 0.12784578 -0.023985708 -0.39316148 0.015984371 -0.009228846
0.02674717 0.23174754 0.043988194 0.20466661 0.24074437 -0.12879385 0.0020107867 -0.12518066
0.02401962 -0.053674497 -0.17124864 0.013563094 -0.055491123 0.04706639 -0.1214701 0.3059934
-0.09700359 0.01334988 -0.06187349 -0.010349317 -0.19283248 0.21263056 -0.10156266 -0.01709895
-0.05513181 -0.07065099 -0.027647104 0.16639584 0.19409768 -0.18536247 -0.01940308 -0.13700303
-0.3757346 0.16394462 -0.01054334 0.23345152 -0.24714467 0.1828724 0.22085272 -0.13650694
0.0044079553 -0.2520003 0.03698755 -0.21160184 0.1449293 -0.22119017 0.017961506 -0.08419297
-0.04092315 0.24730095 -0.20674543 0.16411342 0.03857423 0.013225806 0.07568542 -0.03460129
-0.21250677 -0.12764205 -0.16283557 0.09286617 0.06707341 0.12773256 -0.12507589 0.12302229
-0.14512852 -0.22596277 0.18184553 0.074663095 0.002869674 -0.06786539 -0.012675334 -0.06685105
-0.023315622 0.14551646 0.06657353 0.06545794 -0.2001643 0.09824762 0.1759453 0.087881595
-0.2107457 -0.20844012 0.084783584 -0.033551272 0.1051827 0.07216171 -0.1004777 -0.17933497
-0.22084208 -0.18390138 0.08158481 0.077825174 0.20200165 0.1885228 0.037994206 -0.16892198
0.13415685 -0.25883096 0.09997119 0.12087655 -0.06280954 0.02184462 -0.001811489 0.12210147
0.00034202661 -0.15954848 0.19119824 0.2114623 0.26132825 -0.15694991 -0.09157147 0.15609317
-0.17442457 0.22404933 -0.103701636 0.2193885 -0.15525874 0.19563858 -0.24728642 0.0062186844

conv1.bias f4 [64]
00000000: bf08 613d 74d7 203d fad1 8f3d 8a81 adbd
00000010: 27a7 9fbd 2444 18be 34e3 ecb9 6b93 e93c
00000020: 9952 933d 4099 573d f30e a33d f57f 9ebc
00000030: 1a3c bc3c 2b74 96bd d2f6 62be c1b3 283d
00000040: afcd 92bd 30b0 423e 479f 06be 7bd0 10bd
00000050: c4b1 9bbd 0424 d83c 423c a73d 8dd8 9bbb
00000060: 4abf f4bd 2e97 16be 0f76 aebb d801 0e3d
00000070: 6a49 4cbd 108f 153e 3e7e 82bc 8db0 6b3e
00000080: a449 82bd 9e61 923c da20 cdbd c3d1 183e
00000090: 35e5 ba3b f555 b13d 01f3 9a3d eb94 a0bd
000000a0: e63a 47bd 7efe 41bd bcf8 1bbc cb32 933d
000000b0: 4b32 15bd 37db bbbc e0d8 89bd b2fa 86bd
000000c0: fa88 efbd 90bf a3bd 4c26 f63d 35bf 003e
000000d0: 0a9d 8cbd f795 933d 81de 0c3e 198e 56bd
000000e0: 0688 2a3e b5e8 3ebd 18dc d33d f894 833d
000000f0: 0130 f83d 70c1 3c3d 9172 f93a 44bd 6bbe
0.05493998 0.039267972 0.07022472 -0.08471973 -0.07795554 -0.14869744 -0.00045182707 0.028512677
0.07193489 0.052636385 0.07961836 -0.019348124 0.022977877 -0.07346376 -0.22164467 0.04118705
-0.07168137 0.19012523 -0.13146697 -0.035355072 -0.076022655 0.026384361 0.0816579 -0.0047560395
-0.11950548 -0.14706108 -0.0053241323 0.034669727 -0.0498747 0.14605355 -0.015929338 0.23016568
-0.06361702 0.017868813 -0.100160316 0.14923768 0.005703593 0.08658973 0.075658806 -0.07840904
-0.048640154 -0.047361843 -0.009519752 0.07187422 -0.036424916 -0.022931678 -0.06730819 -0.06590785
-0.11696048 -0.07995522 0.12019023 0.1257294 -0.0686589 0.07206338 0.13756754 -0.05238161
0.16653451 -0.046608645 0.10344714 0.06424898 0.12118531 0.046082914 0.0019031336 -0.23021418

gcs.0.g f4 [64, 320]
00000000: 4301 0080 2f02 0000 1503 0080 7400 0000
00000010: bd00 0080 3403 0080 5f00 0080 9c04 0000
00000020: d902 0000 ce05 0000 ec05 0080 9a04 0000
00000030: 4304 0000 4e02 0080 7101 0000 7004 0000
00000040: 6300 0000 2701 0080 f600 0000 7102 0000
00000050: b203 0080 7001 0080 5a02 0000 0701 0080
00000060: 3502 0080 1303 0000 f700 0000 0a04 0080
00000070: 2f00 0000 6701 0080 c705 0080 9d01 0000
00000080: 2e01 0080 2f00 0000 5801 0000 9903 0000
00000090: 4e02 0000 4a26 0080 3502 0080 8708 0080
000000a0: a700 0080 7c04 0000 9201 0000 410d 0000
000000b0: bc00 0080 9f04 0080 8300 0000 dd06 0080
000000c0: b104 0000 2804 0080 b201 0080 a405 0000
000000d0: 5100 0000 5402 0080 4c02 0000 5903 0000
000000e0: 5b04 0000 9600 0000 6b03 0000 b204 0000
000000f0: 4c03 0000 7e06 0000 0701 0000 bf00 0080
00000100: c8d3 553d 97e8 25bd a8f1 49bb 678c 9f3c
00000110: 9ed1 8f3d 256e ad3d 2cf8 433d e2a8 803d
00000120: 3dd7 66bd 4496 efbd 9022 c33b 973f 703d
00000130: 85a1 54bd df61 623d 57cd b03d cb97 5e3d
00000140: 42bb 5abd e031 d63c fb70 64bd 448f f83c
00000150: 750a 6bbd 4989 ba3d 6d1b bfbd 5c3f c33d
00000160: 81ae 8bbd bc05 c13d d1eb 6cbc 8a58 90bb
00000170: 19d9 8a3c 9ab7 593d adcb d23d ab4b e0bc
00000180: dd98 bebd 6685 4d3d 711e ad3d 9cfa b73d
00000190: 3e6f 85bd 0178 36bd 63b1 9d3c 4010 c3bd
000001a0: a683 d2bc d3f5 523d 8c50 a13d 05e1 d0bd
000001b0: cd9e 0dbc 73f2 74ba 29ea 10bd aa1c 453b
000001c0: a285 f53d 7c21 763d 7ca4 cf3d ca9a 853d
000001d0: 5988 b0bd d5b8 e93d 663a 66bc a7fe 6ebd
000001e0: a62d 7fbd 9a98 cc3d 527e 683b 138a 12bd
000001f0: 16c8 93bd 6162 bfbd 2170 f1bd 9a35 e8bc
00000200: a9ba b03d ab7f efbd 9874 86bd d494 10bc
00000210: 05f7 d93c 36b4 9e3d 5923 8bbd ae14 b73d
00000220: e089 583d 64cf a53d 10b1 56bd f1d5 ccbd
00000230: 7fc6 c03d 3e40 0c3d 90cc 0dbe ab84 bd3d
00000240: c2b7 04be 0c01 d83d cbef 8bbb ea3b fabd
00000250: e823 bb3d 59d6 cfbd ba9c 653c fcaa 643b
00000260: eb52 963d 1ae0 933d a09f 0b3e d795 bc39
00000270: 937f b73d 21dc 1a3d 6935 fcbc 61ad a2bd
00000280: bb3d ebbd d1ca ccbc 949a 7d3d f7ef c2bd
00000290: 96ba cb3a 0e14 dfbd f128 bb3d f1cc c33d
000002a0: 283a f53d 45c2 043e 9f1a 55bd 7be1 963d
000002b0: d769 6c3c 0aa9 89bd 2a7e 13be 7eab ed3c
000002c0: b37a fb3d 785a 38bd 08dc f5bd f187 933c
000002d0: c446 403d 7402 4ebd 0c96 89bc 92b6 a23d
000002e0: b7c8 b7bd 1251 36bd 32e8 463d 0310 28bd
000002f0: 11cd 46bd 325c eb3d 6084 ef3c a8c7 9bbd
00000300: 9446 a53d 3bd4 273d fe30 3f3d f3e5 b63d
00000310: 4b02 9f3d 9615 a2bc f917 1b3d a01e 43bc
00000320: fd5d 1d3c 9783 4cbd c2ec d7bd 351d c03d
00000330: e2c9 2ebc 556f 2ebc b70b cfbd 7a64 ce3d
00000340: 27e5 823d e90a a8bb f775 3fbd e772 3dbd
00000350: c340 15bd 861c d9bb b5ad aebd 3977 c1bd
00000360: 9ee0 0bbe 044d 91bd 3465 c6bd 2962 fabc
00000370: 6473 a0bd b9b6 2ebd 18f1 66bd efa0 2d3d
00000380: f6aa 053d 7e23 48bd 0597 bb3c 964a d93c
00000390: ebb8 ffbc ee5b 563d d135 8bbd 7595 38bd
000003a0: 6340 d3bd f781 5dbd fcd6 92bd a8f9 7dbd
000003b0: 0b75 f23d e124 12bd 8ee4 74bc 159f c2bd
000003c0: 0e11 ce3d efbb a3bd d962 debd 7721 013d
000003d0: a697 773d a98f bf3c 54c1 e33d b304 4e3c
000003e0: 0f51 ab3d b253 01bd d03d aa3d 1303 eebd
000003f0: dc76 ea3d f2f4 a9bb fa97 23bd c581 97bd
-4.53e-43 7.83e-43 -1.106e-42 1.63e-43 -2.65e-43 -1.149e-42 -1.33e-43 1.654e-42
1.022e-42 2.082e-42 -2.124e-42 1.651e-42 1.529e-42 -8.27e-43 5.17e-43 1.592e-42
1.39e-43 -4.13e-43 3.45e-43 8.76e-43 -1.326e-42 -5.16e-43 8.44e-43 -3.69e-43
-7.92e-43 1.103e-42 3.46e-43 -1.449e-42 6.6e-44 -5.03e-43 -2.073e-42 5.79e-43
-4.23e-43 6.6e-44 4.82e-43 1.29e-42 8.27e-43 -1.3736e-41 -7.92e-43 -3.059e-42
-2.34e-43 1.609e-42 5.63e-43 4.755e-42 -2.63e-43 -1.658e-42 1.84e-43 -2.462e-42
1.683e-42 -1.491e-42 -6.08e-43 2.023e-42 1.14e-43 -8.35e-43 8.24e-43 1.201e-42
1.562e-42 2.1e-43 1.226e-42 1.684e-42 1.183e-42 2.329e-42 3.69e-43 -2.68e-43
0.052203923 -0.040505018 -0.0030814204 0.019476129 0.07022403 0.08468274 0.047844097 0.06282212
-0.05635761 -0.11698583 0.005955048 0.058654394 -0.05191185 0.05526912 0.086329155 0.05434398
-0.05340124 0.02614683 -0.05577181 0.030341752 -0.05738302 0.09108216 -0.09331403 0.09533569
-0.06820393 0.09424922 -0.01446052 -0.004405086 0.016949223 0.05315361 0.10292754 -0.027379831
-0.093065 0.050176047 0.08453072 0.08983347 -0.065153584 -0.04454804 0.019249624 -0.09524584
-0.02569754 0.051503967 0.07876691 -0.10199169 -0.008643818 -0.0009343989 -0.035379563 0.00300769
0.11988379 0.060090527 0.10138795 0.06523664 -0.08619756 0.11412207 -0.014052009 -0.058348324
-0.062299393 0.09990044 0.0035475683 -0.03577621 -0.07215898 -0.09344936 -0.11788965 -0.028345872
0.086293526 -0.116942726 -0.06565207 -0.008824546 0.026607046 0.07749216 -0.067938514 0.08939491
0.052865863 0.08096197 -0.052414954 -0.100017436 0.0941286 0.034240954 -0.13847566 0.0925382
-0.12960723 0.10547075 -0.004270529 -0.12218459 0.09137708 -0.101483054 0.014014417 0.0034891954
0.07340034 0.07220478 0.13635111 0.00035969794 0.0895988 0.037807588 -0.030787187 -0.07943226
-0.114863835 -0.024999054 0.061914995 -0.09518426 0.0015543278 -0.10892497 0.09138668 0.09560574
0.11973983 0.12964733 -0.05202734 0.07367226 0.014429531 -0.06721695 -0.14403597 0.029012438
0.122792624 -0.045008153 -0.12004858 0.018009158 0.046942487 -0.05029531 -0.01679518 0.07944979
-0.0897383 -0.04451091 0.048561282 -0.041030895 -0.04853541 0.11492194 0.029237926 -0.07606441
0.08070102 0.040973883 0.046677582 0.08930578 0.07764109 -0.019785684 0.03786466 -0.011909157
0.009604928 -0.04993018 -0.10543205 0.09380571 -0.01066825 -0.010646661 -0.10109656 0.10077758
0.063913636 -0.0051282537 -0.04674336 -0.046252158 -0.036438715 -0.0066257147 -0.08529226 -0.09446568
-0.13659903 -0.07094768 -0.09687272 -0.030564385 -0.07834509 -0.042654727 -0.05638227 0.042389806
0.032633744 -0.048861973 0.02289916 0.026524823 -0.031216105 0.052333765 -0.06797374 -0.04506441
-0.10315015 -0.054079022 -0.07169911 -0.06200567 0.118387304 -0.0356797 -0.01494707 -0.09502999
0.10061847 -0.0799483 -0.108586974 0.031526055 0.060447358 0.023383932 0.11120859 0.012574363
0.0836507 -0.03157396 0.08312571 -0.1162168 0.11448452 -0.0051866705 -0.039939858 -0.073977984

gcs.0.mu f4 [5, 4]
00000000: 6b0e 0080 5903 0000 87b3 b9b9 f859 2420
00000010: e014 89be e964 6abe bb64 2cbe be56 0e3f
00000020: 6eb8 17bf e7d2 453f bd58 5a3e c6ec 64be
00000030: aaf3 68be 56cb b7be 9563 b63e 99b6 2d3e
00000040: 11bc 03bf 8641 cb3d eef9 8e3d 3084 d9bc
-5.172e-42 1.201e-42 -0.00035419708 1.3921108e-19 -0.2677374 -0.22890057 -0.168353 0.5560111
-0.5926579 0.77274936 0.21322913 -0.22355947 -0.227492 -0.3589732 0.3562285 0.16964187
-0.5145884 0.09924607 0.06981264 -0.02655229

gcs.0.sigma f4 [5, 4]
00000000: ff71 e8ba 6451 949c 9302 0000 7a01 0000
00000010: 3bb2 373f da74 0bbf 467d 153d 9121 fdbe
00000020: 73b4 163f 7086 0ebf 5e60 b6be e852 a4be
00000030: eb4b d73e 9f71 303f a29a fc3e dfe6 d73e
00000040: 2a7e 3fbf a9d7 033f e5b1 a83d bb69 823e
-0.0017734169 -9.814857e-22 9.23e-43 5.3e-43 0.71756333 -0.54475176 0.036496423 -0.49439672
0.58869094 -0.55673885 -0.35620397 -0.32094502 0.42050108 0.6892337 0.49336725 0.42168328
-0.74801886 0.51500946 0.08237056 0.2547129

gcs.0.root f4 [64, 64]
00000000: 1118 08be 9b85 85be 6da7 81bd 2626 103d
00000010: 887a 333e 8ebb 383e c65d 523e 8726 91be
00000020: 37d3 e83d 4d28 08bc 480c 5bbd 147e 413b
00000030: 3820 2bbd 4c4d 783d f0fe 7bbe 455d a13d
00000040: ca6a 513e bcd5 523d a412 98be 97fe 823e
00000050: aca3 82be d3a1 f1bb 41ee 063c 71ef 473e
00000060: 83d9 29be b9cb 193e 2b01 673d 2655 0c3e
00000070: d47a 0dbe e9b0 e0bd 4796 fdbd c0a0 123d
00000080: b8cc 35be 3471 f2bc fb5b 53be e29e 113e
00000090: df25 473e 505e 8abd 94a0 363e 9acb b5bd
000000a0: 3a55 863d d34f 3fbe 96e1 c1bd 3df0 ab3d
000000b0: a140 753e 9b1e 33be 9e17 f33d 48f1 58bd
000000c0: 7d92 bf3d d4ed e2bd a307 21be d143 203e
000000d0: 47ac 203e 1e92 443e 0a6c 80bd ef8f 63bd
000000e0: 96ca a03d ea73 a43c d73e 943c 91f9 57be
000000f0: 1d03 ba3d 0c32 333e b638 c33d 59eb 063e
00000100: 4523 04be 8472 1fbe 187e 55bc 2520 32be
00000110: 16d7 2a3e a7cb 6a3e 5f72 66be ecd8 93bd
00000120: 9939 363e 8819 bbbc dd40 0abe bd78 cbbd
00000130: 2fc0 e8bd 2653 65bd 6c37 c33c 8587 34be
00000140: 7c73 58be 7f47 423e 7d33 edbd b9f6 2fbe
00000150: a704 21be f230 8d3e c316 13be 2723 5dbe
00000160: e380 c93d 6bb3 87bc 89a8 ff3c 8071 923e
00000170: 7d21 c33c 1615 fabc 5164 a3be aa9d fa3d
00000180: 139a a9bb 41c9 a5bd 808c cb3d f804 27be
00000190: aacc 40be 3aad 1fbe 065f 023e 666b 4c3d
000001a0: 759a a0bc b52b 1a3b 02f0 1b3e 7c09 1fbd
000001b0: f423 9a3c f036 5a3e 2f47 983e f9dd 59be
000001c0: fceb 02be 6b67 d33c 6fa5 d63d 8c64 2fbe
000001d0: 9548 47bd 52ea 9dbc d75a 30be 723a de3d
000001e0: 095e 413e 5e4b 3f3e 1b43 37bd ea11 4dbd
000001f0: ac13 1d3e 3b00 e3bd 1ac1 943d 2ba5 f13d
00000200: d533 823d f165 78bd 886d 243e 555f 9dbd
00000210: 6b3d 32be d5aa 293d d8ed 913d 429b 20bd
00000220: ae45 853d e5a3 7d3e e92f b9bc db9c 2fbe
00000230: b0ee 713d 0f45 19be f1b0 92be cb5e 2cbe
00000240: c420 75bc 2037 593d 45b3 67bd 4474 7c3e
00000250: 6902 853d b3ec 17be 6c8f 513e 1d80 0ebe
00000260: d59b b9bd b069 02be d4af 033c 0430 3cbd
00000270: a7b2 2bbe 7ad7 c0bb 256a 31be fbcb 313e
00000280: edcd 3dbd 25a7 e23c 4cb4 3f3d 7d61 b73c
00000290: c19e d83d 87b0 3d3e aa94 a3bc e33b d23d
000002a0: c7c9 20be 1e15 edbd 4c7e cf3d 11ee 223d
000002b0: d2b9 9f3d d368 06be 3f13 c23d f7fc 38be
000002c0: 29ce 1bbe 1bb1 493e c56c f6bc 368f afbd
000002d0: 72ba d9bc 6b0d 393d 1fda 5f3e 5fec 083e
000002e0: 2814 753c a510 163e 1dfe 973d 33d6 a7bc
000002f0: 4341 1fbe 8c00 573e 8db4 163d 7440 45be
00000300: 3227 d13d 9740 663e ab27 2c3e 4dbc 4d3e
00000310: 1d50 52bd 3d1c 18be 94f5 a43c 3049 c23c
00000320: d20d bdbc 27d3 363e 61bf 05be d564 3abe
00000330: 2e34 63bb fb5b 4d3e 0a08 153b c7ff 82bc
00000340: 124d edbd d1cd a9bd 1514 623e 56c1 9c3d
00000350: 3334 843d f3bf 533e 8691 3dbe 2ac9 8cbe
00000360: 5a4b 2e3e 7a1d 4a3d 1c3e 293e 5072 a4bd
00000370: 065b 2cbe a26f ac3d 2656 813e e552 b1bd
00000380: 0ec6 443d 4e70 65be b2ed 23bd d53e ecbd
00000390: a308 95bd bad2 0aba 7f6b dfbc 9665 3d3e
000003a0: 2b40 a0bd 7e1b 5e3e 0227 923d c753 00be
000003b0: 6abb 1e3e 4225 a53d 7032 00be 06f5 abbc
000003c0: c9e9 3cbe 0b14 cf3b 1841 d03c 4964 89be
000003d0: cabc c53d 0197 18be f37b 92be 87d7 c4bc
000003e0: a518 5e3e cc0f 593c cca9 9fbd bc00 19bd
000003f0: 57f7 06be 8905 343d d4b4 91bd f635 86bd
-0.1329043 -0.26078495 -0.06330762 0.03519263 0.1752721 0.18040296 0.20543584 -0.28349707
0.11368411 -0.00831039 -0.05347851 0.0029524611 -0.041778773 0.06062059 -0.2460897 0.07879118
0.20450893 0.051473364 -0.29701722 0.25584862 -0.25515497 -0.0073740273 0.008235515 0.19524933
-0.1658688 0.1501912 0.0563976 0.13704357 -0.13816386 -0.10971243 -0.12382179 0.035797834
-0.17753875 -0.029594995 -0.20640557 0.14220765 0.1944804 -0.0675627 0.17834693 -0.088767245
0.065592244 -0.18682794 -0.09466855 0.08395431 0.23950435 -0.17492144 0.11869739 -0.05296448
0.09354112 -0.11080518 -0.1572557 0.1565087 0.15690719 0.19196364 -0.06270607 -0.055557188
0.0785114 0.020074803 0.01809637 -0.21091296 0.09082625 0.1749956 0.09532301 0.13175716
-0.1290408 -0.15571028 -0.013030551 -0.17395075 0.16683611 0.2292925 -0.22504567 -0.07219109
0.1779541 -0.022839323 -0.13501306 -0.099351384 -0.11364781 -0.0559875 0.023830138 -0.17629822
-0.21137804 0.18972586 -0.11582086 -0.17183961 -0.15724431 0.27576405 -0.14364152 -0.21595441
0.09839036 -0.016565045 0.031208294 0.2860222 0.02381968 -0.030527633 -0.31912473 0.12237103
-0.005175838 -0.08095027 0.099389076 -0.16310489 -0.18828073 -0.15593424 0.12731561 0.04990711
-0.0196049 0.0023524587 0.15228274 -0.038827404 0.018815972 0.2131002 0.2974181 -0.21276082
-0.12785333 0.02580615 0.10480773 -0.171282 -0.048653204 -0.019276772 -0.17222153 0.10850991
0.18883528 0.18681094 -0.04474173 -0.050065912 0.15339535 -0.11084028 0.07263394 0.117990814
0.063575424 -0.060644094 0.16057408 -0.07684199 -0.17406242 0.041422684 0.07125443 -0.039210565
0.06507431 0.24769552 -0.022605853 -0.1714968 0.05906552 -0.1496775 -0.2865062 -0.16833036
-0.014961425 0.053031087 -0.05656745 0.24653727 0.064946 -0.14836387 0.20464867 -0.13916059
-0.09062926 -0.12735629 0.008037526 -0.04594423 -0.16767369 -0.005885062 -0.17325647 0.17362969
-0.046338964 0.027667591 0.046802804 0.022385353 0.10577155 0.18524371 -0.01996835 0.10265329
-0.15701972 -0.115762934 0.10131511 0.03977782 0.07799114 -0.13125925 0.09476327 -0.18065248
-0.15215363 0.19696467 -0.030081162 -0.08572237 -0.026578162 0.045178812 0.2186055 0.13371418
0.014958419 0.14654787 0.07421515 -0.02048788 -0.15552239 0.20996302 0.03679328 -0.19262868
0.10212554 0.22485577 0.16812007 0.20091362 -0.051345933 -0.14854522 0.020136632 0.02371654
-0.02307788 0.17853986 -0.13061287 -0.18202527 -0.0034668553 0.20054619 0.0022740387 -0.015991105
-0.115869656 -0.082912095 0.22077973 0.076540634 0.06455269 0.20678692 -0.18512544 -0.27497226
0.17020932 0.049344517 0.16527599 -0.08029616 -0.16831598 0.0841973 0.2526104 -0.08658389
0.048040442 -0.22406122 -0.040021606 -0.11535422 -0.07277038 -0.0005295683 -0.027272938 0.18495783
-0.07824739 0.21690175 0.071363464 -0.12531959 0.1550118 0.08063747 -0.1251924 -0.02099086
-0.18448557 0.006319528 0.025421664 -0.26834324 0.09655149 -0.14901353 -0.2861019 -0.024028553
0.21689089 0.013248395 -0.07796058 -0.037354216 -0.1318029 0.04395059 -0.07114568 -0.06553261

gcs.0.bias f4 [64]
00000000: 305c 263d 5733 9b3d cfba 013d 983d 88bc
00000010: 22bd 903d 1b1b 6abb 6339 1dbd 7556 d13d
00000020: 54ac cf3b 2927 5c3c 6105 de3c ee26 f2bc
00000030: 43d6 2fbc f281 9b3c 9a5d 563d b928 b1bc
00000040: 25d3 8fbd 16dc 673c 62fd d03d a4ae c1bd
00000050: 5b72 333d 4eff ce3c c618 cd3b affc 80bd
00000060: 0422 b5bc 49ff a83c 2adb 1a3c e134 b9bb
00000070: 675d fa3c 2e10 1b3d 1b46 863c ec25 e9bc
00000080: 6638 03bd 3ded 81bc e0dc 3a3c a733 57bd
00000090: d099 1fbc 2213 f6bc 3a12 163d 6048 eabb
000000a0: c30f e63b 8cdc 093d 844c 993d 8a9d 003d
000000b0: fc47 4abd 598f 843c 1f00 4d3d 53c3 95bc
000000c0: 4e82 85bc c397 fb39 b830 b6bc 4443 d1bd
000000d0: d2d4 5b3d 3e81 023d afad 33bd 2350 54ba
000000e0: cad7 eb3c 2478 3c3a 44dd 38bc 82ad c2bc
000000f0: c0b6 02bd ad8f 58bd 9fdf f0bb 9c43 84bc
0.04061526 0.07578152 0.031672295 -0.016630933 0.07067324 -0.0035721723 -0.038384806 0.102215685
0.006337682 0.013437071 0.027102174 -0.029559579 -0.010732236 0.018982861 0.05233536 -0.021625863
-0.070226945 0.014151594 0.10204579 -0.09457138 0.04381023 0.025268223 0.0062590567 -0.062981956
-0.022110946 0.020629542 0.009451667 -0.0056520556 0.030562116 0.037857227 0.01639085 -0.028460465
-0.032036208 -0.015860194 0.0114052 -0.052539494 -0.009741262 -0.03003842 0.036638476 -0.007149741
0.007020922 0.033657596 0.07485297 0.03140024 -0.049385056 0.016181635 0.050048944 -0.018281614
-0.016297486 0.00047987522 -0.022240028 -0.10217908 0.05366976 0.031861536 -0.04386681 -0.00080990995
0.02878942 0.0007189533 -0.011283223 -0.023764376 -0.031912565 -0.052871395 -0.0073508765 -0.01614552
